…
'adam',\n","                metrics=['accuracy'])\n","  \n","  return model"]},{"cell_type":"code","execution_count":null,"metadata":{"colab":{"background_save":true,"base_uri":"https://localhost:8080/"},"id":"BquiA-Hw-tK5","outputId":"f3b90b89-f0b1-4de4-80af-f4f69756d255"},"outputs":[{"name":"stdout","output_type":"stream","text":["Model: \"sequential\"\n","_________________________________________________________________\n"," Layer (type)                Output Shape              Param #   \n","=================================================================\n"," conv2d (Conv2D)             (None, 224, 224, 32)      896       \n","                                                                 \n"," max_pooling2d (MaxPooling2D  (None, 112, 112, 32)     0         \n"," )                                                               \n","                                                                 \n"," activation (Activation)     (None, 112, 112, 32)      0         \n","                                                                 \n"," batch_normalization (BatchN  (None, 112, 112, 32)     128       \n"," ormalization)                                                   \n","                                                                 \n"," conv2d_1 (Conv2D)           (None, 112, 112, 64)      18496     \n","                                                                 \n"," max_pooling2d_1 (MaxPooling  (None, 56, 56, 64)       0         \n"," 2D)                                                             \n","                                                                 \n"," activation_1 (Activation)   (None, 56, 56, 64)        0         \n","                                                                 \n"," batch_normalization_1 (Batc  (None, 56, 56, 64)       256       \n"," hNormalization)                                                 \n","                                                                 \n"," conv2d_2 (Conv2D)           (None, 56, 56, 128)       73856     \n","                                                                 \n"," max_pooling2d_2 (MaxPooling  (None, 28, 28, 128)      0         \n"," 2D)                                                             \n","                                                                 \n"," dropout (Dropout)           (None, 28, 28, 128)       0         \n","                                                                 \n"," flatten (Flatten)           (None, 100352)            0         \n","                                                                 \n"," dense (Dense)               (None, 256)               25690368  \n","                                                                 \n"," batch_normalization_2 (Batc  (None, 256)              1024      \n"," hNormalization)                                                 \n","                                                                 \n"," dense_1 (Dense)             (None, 8)                 2056      \n","                                                                 \n","=================================================================\n","Total params: 25,787,080\n","Trainable params: 25,786,376\n","Non-trainable params: 704\n","_________________________________________________________________\n","Epoch 1/30\n","55/55 [==============================] - 57s 998ms/step - loss: 1.9321 -
…
