…
ps://localhost:8080/"},"id":"kI4pOOGdy-j1","executionInfo":{"status":"ok","timestamp":1684732086218,"user_tz":-420,"elapsed":13,"user":{"displayName":"Lã Huy Hoàng","userId":"05470508982825563388"}},"outputId":"4fc99e61-9418-41c6-b4ce-155770e66d13"},"execution_count":null,"outputs":[{"output_type":"stream","name":"stdout","text":["Model: \"sequential_5\"\n","_________________________________________________________________\n"," Layer (type)                Output Shape              Param #   \n","=================================================================\n"," conv2d_16 (Conv2D)          (None, 222, 222, 32)      896       \n","                                                                 \n"," max_pooling2d_16 (MaxPoolin  (None, 111, 111, 32)     0         \n"," g2D)                                                            \n","                                                                 \n"," conv2d_17 (Conv2D)          (None, 109, 109, 64)      18496     \n","                                                                 \n"," max_pooling2d_17 (MaxPoolin  (None, 54, 54, 64)       0         \n"," g2D)                                                            \n","                                                                 \n"," conv2d_18 (Conv2D)          (None, 52, 52, 128)       73856     \n","                                                                 \n"," max_pooling2d_18 (MaxPoolin  (None, 26, 26, 128)      0         \n"," g2D)                                                            \n","                                                                 \n"," conv2d_19 (Conv2D)          (None, 24, 24, 256)       295168    \n","                                                                 \n"," max_pooling2d_19 (MaxPoolin  (None, 12, 12, 256)      0         \n"," g2D)                                                            \n","                                                                 \n"," conv2d_20 (Conv2D)          (None, 10, 10, 512)       1180160   \n","                                                                 \n"," max_pooling2d_20 (MaxPoolin  (None, 5, 5, 512)        0         \n"," g2D)                                                            \n","                                                                 \n"," dropout_10 (Dropout)        (None, 5, 5, 512)         0         \n","                                                                 \n"," flatten_5 (Flatten)         (None, 12800)             0         \n","                                                                 \n"," dense_12 (Dense)            (None, 1024)              13108224  \n","                                                                 \n"," dense_13 (Dense)            (None, 512)               524800    \n","                                                                 \n"," dense_14 (Dense)            (None, 8)                 4104      \n","                                                                 \n","=================================================================\n","Total params: 15,205,704\n","Trainable params: 15,205,704\n","Non-trainable params: 0\n","_________________________________________________________________\n"]}]},{"cell_type":"code","execution_count":null,"metadata":{"id":"-xnbfiaRxRho","colab":{"b
…
